/* ========================================
   Ad Tech Blog - Calm Editorial Design
   ======================================== */

/* Import Pretendard (Korean body) + Newsreader & Noto Serif KR (serif headings) + Fira Code */
@import url('https://cdn.jsdelivr.net/gh/orioncactus/pretendard@v1.3.9/dist/web/variable/pretendardvariable-dynamic-subset.min.css');
@import url('https://fonts.googleapis.com/css2?family=Newsreader:opsz,wght@6..72,400;6..72,500;6..72,600;6..72,700&family=Noto+Serif+KR:wght@500;600;700&family=Fira+Code:wght@400;500&display=swap');

/* ========================================
   CSS Variables & Theme System
   ======================================== */

:root {
  /* Editorial Light (default) */
  --bg-primary: #faf8f3;        /* cream */
  --bg-secondary: #fffdf8;      /* card / surface */
  --bg-tertiary: #efe9dd;       /* tag / divider surface */
  --bg-gradient: var(--bg-primary);   /* flat — body background becomes solid cream */

  /* Accent Colors — single restrained brick */
  --accent-primary: #b0442c;    /* brick */
  --accent-secondary: #8a6a3a;  /* bronze/ochre (replaces purple) */
  --accent-gradient: var(--accent-primary);  /* solid — 12 fill consumers go solid for free */
  --accent-glow: transparent;

  /* Text Colors */
  --text-primary: #201d1a;      /* ink */
  --text-secondary: #4f4a42;
  --text-muted: #8a8176;

  /* UI Elements */
  --border-color: rgba(32, 29, 26, 0.14);
  --shadow-sm: 0 1px 2px rgba(32, 29, 26, 0.05);
  --shadow-md: 0 4px 14px rgba(32, 29, 26, 0.07);
  --shadow-lg: 0 12px 30px rgba(32, 29, 26, 0.10);
  --shadow-glow: none;          /* neutralizes the 7 var(--shadow-glow) consumers */

  /* Surfaces (formerly glassmorphism) */
  --glass-bg: var(--bg-secondary);   /* opaque — blur lines become visually dead even if missed */
  --glass-border: var(--border-color);

  /* Transitions */
  --transition-fast: 0.2s ease;
  --transition-normal: 0.3s ease;
  --transition-slow: 0.5s ease;

  /* Fonts */
  --font-sans: 'Pretendard Variable', 'Pretendard', -apple-system, BlinkMacSystemFont, system-ui, sans-serif;
  --font-serif: 'Newsreader', 'Noto Serif KR', Georgia, 'Apple SD Gothic Neo', serif;
  --font-mono: 'Fira Code', ui-monospace, monospace;
}

[data-theme="dark"] {
  /* Editorial Dark (warm — no blue cast) */
  --bg-primary: #1a1715;
  --bg-secondary: #232020;
  --bg-tertiary: #2e2a26;
  --bg-gradient: var(--bg-primary);

  --accent-primary: #d77a5f;    /* slightly brighter brick for dark */
  --accent-secondary: #c9a36b;
  --accent-gradient: var(--accent-primary);
  --accent-glow: transparent;

  --text-primary: #f1ece3;
  --text-secondary: #c6bdae;
  --text-muted: #8f8678;

  --border-color: rgba(241, 236, 227, 0.13);
  --shadow-sm: 0 1px 2px rgba(0, 0, 0, 0.30);
  --shadow-md: 0 4px 14px rgba(0, 0, 0, 0.35);
  --shadow-lg: 0 12px 30px rgba(0, 0, 0, 0.45);
  --shadow-glow: none;

  --glass-bg: var(--bg-secondary);
  --glass-border: var(--border-color);
}

/* ========================================
   Reset & Base Styles
   ======================================== */

* {
  margin: 0;
  padding: 0;
  box-sizing: border-box;
}

html {
  scroll-behavior: smooth;
}

body {
  font-family: var(--font-sans);
  background: var(--bg-gradient);
  color: var(--text-primary);
  line-height: 1.6;
  min-height: 100vh;
  transition: background var(--transition-normal);
  word-break: keep-all;
  -webkit-font-smoothing: antialiased;
  -moz-osx-font-smoothing: grayscale;
}

::selection {
  background: rgba(176, 68, 44, 0.20);
  color: var(--text-primary);
}

/* ========================================
   Typography
   ======================================== */

h1,
h2,
h3,
h4,
h5,
h6 {
  font-family: var(--font-serif);
  font-weight: 700;
  line-height: 1.2;
  margin-bottom: 1rem;
}

h1 {
  font-size: 2.5rem;
}

h2 {
  font-size: 2rem;
}

h3 {
  font-size: 1.75rem;
}

h4 {
  font-size: 1.5rem;
}

h5 {
  font-size: 1.25rem;
}

h6 {
  font-size: 1rem;
}

p {
  margin-bottom: 1rem;
  color: var(--text-secondary);
}

a {
  color: var(--accent-primary);
  text-decoration: none;
  transition: color var(--transition-fast);
}

a:hover {
  color: var(--accent-secondary);
}

code {
  font-family: 'Fira Code', monospace;
  background: var(--bg-tertiary);
  padding: 0.2em 0.4em;
  border-radius: 4px;
  font-size: 0.9em;
}

pre {
  background: var(--bg-tertiary);
  padding: 1.5rem;
  border-radius: 8px;
  overflow-x: auto;
  margin-bottom: 1rem;
  border: 1px solid var(--border-color);
}

pre code {
  background: none;
  padding: 0;
}

/* ========================================
   Header & Navigation
   ======================================== */

header {
  background: var(--glass-bg);
  border-bottom: 1px solid var(--glass-border);
  padding: 1rem 0;
  position: sticky;
  top: 0;
  z-index: 1000;
  box-shadow: var(--shadow-sm);
}

nav {
  max-width: 1200px;
  margin: 0 auto;
  padding: 0 2rem;
  display: flex;
  justify-content: space-between;
  align-items: center;
}

.logo {
  font-size: 1.5rem;
  font-weight: 800;
  color: var(--accent-primary);
}

.nav-content {
  display: flex;
  align-items: center;
  gap: 1.5rem;
  flex: 1;
  justify-content: flex-end;
}

.nav-links {
  display: flex;
  gap: 1.5rem;
  align-items: center;
  list-style: none;
}

.nav-links a,
.nav-actions .btn-demo {
  color: var(--text-secondary);
  font-weight: 500;
  font-size: 0.95rem;
  position: relative;
  transition: color var(--transition-fast);
}

.nav-links a:hover,
.nav-actions .btn-demo:hover {
  color: var(--accent-primary);
}

.nav-links a.active,
.nav-actions .btn-demo-active,
.nav-actions .btn-posts-active {
  color: var(--accent-primary);
  position: relative;
}

.nav-links a.active::after,
.nav-actions .btn-demo-active::after,
.nav-actions .btn-posts-active::after {
  content: "";
  position: absolute;
  bottom: -4px;
  left: 0;
  right: 0;
  height: 2px;
  background: var(--accent-primary);
  border-radius: 1px;
}

.nav-actions {
  display: flex;
  align-items: center;
  gap: 1.5rem;
}

/* .btn-demo / .nav-links a 는 위에서 통일 텍스트 링크로 스타일됨 (박스 제거) */

/* Mobile hamburger toggle (button injected by main.js, hidden on desktop) */
.nav-toggle {
  display: none;
  background: none;
  border: 1px solid var(--border-color);
  border-radius: 8px;
  width: 38px;
  height: 38px;
  color: var(--text-primary);
  cursor: pointer;
  align-items: center;
  justify-content: center;
}
.nav-toggle:hover { color: var(--accent-primary); border-color: var(--accent-primary); }
.nav-toggle svg { display: block; }

/* Mobile nav — collapse to hamburger dropdown */
@media (max-width: 768px) {
  nav { flex-wrap: wrap; }
  .nav-toggle { display: inline-flex; }
  .nav-content {
    display: none;
    flex-basis: 100%;
    flex-direction: column;
    align-items: flex-start;
    justify-content: flex-start;
    gap: 0.25rem;
    padding: 0.75rem 0 0.25rem;
  }
  .nav-content.is-open { display: flex; }
  .nav-links {
    flex-direction: column;
    align-items: flex-start;
    gap: 0.5rem;
    width: 100%;
  }
  .nav-actions {
    flex-direction: column;
    align-items: flex-start;
    gap: 0.5rem;
    width: 100%;
  }
  .nav-actions .theme-toggle { margin-left: 0; }
  .nav-actions .theme-toggle::before { display: none; }
}

/* Theme Toggle Button */
.theme-toggle {
  background: var(--bg-tertiary);
  border: 1px solid var(--border-color);
  color: var(--text-primary);
  padding: 0.45rem 0.55rem;
  border-radius: 8px;
  cursor: pointer;
  font-size: 1rem;
  line-height: 1;
  display: inline-flex;
  align-items: center;
  justify-content: center;
  width: 36px;
  height: 36px;
  transition: all var(--transition-fast);
}

.theme-toggle:hover {
  background: var(--accent-primary);
  color: var(--bg-primary);
  box-shadow: var(--shadow-glow);
}

.theme-toggle svg { display: block; }

/* Visual divider before theme toggle within nav-actions */
.nav-actions .theme-toggle {
  margin-left: 0.5rem;
  position: relative;
}

.nav-actions .theme-toggle::before {
  content: '';
  position: absolute;
  left: -0.5rem;
  top: 50%;
  transform: translateY(-50%);
  width: 1px;
  height: 60%;
  background: var(--border-color);
}

/* ========================================
   Container & Layout
   ======================================== */

.container {
  max-width: 1200px;
  margin: 0 auto;
  padding: 0 2rem;
}

.section {
  padding: 4rem 0;
}

@media (max-width: 768px) {
  .section { padding: 2rem 0; }
}

/* ========================================
   Hero Section
   ======================================== */

.hero {
  text-align: center;
  padding: 6rem 0 4rem;
  background: none;
}

.hero h1 {
  font-size: 2.75rem;
  margin-bottom: 1rem;
  color: var(--accent-primary);
  animation: fadeInUp 0.8s ease;
  line-height: 1.15;
}

.hero p {
  font-size: 1.25rem;
  color: var(--text-secondary);
  max-width: 600px;
  margin: 0 auto 2rem;
  animation: fadeInUp 0.8s ease 0.2s both;
}

/* ========================================
   Search & Filter Bar
   ======================================== */

.search-filter-bar {
  background: var(--glass-bg);
  border: 1px solid var(--glass-border);
  border-radius: 16px;
  padding: 2rem;
  margin-bottom: 3rem;
  box-shadow: var(--shadow-md);
  animation: fadeInUp 0.8s ease 0.4s both;
}

.search-box {
  position: relative;
  margin-bottom: 1.5rem;
}

.search-box input {
  width: 100%;
  padding: 1rem 1rem 1rem 3rem;
  background: var(--bg-tertiary);
  border: 1px solid var(--border-color);
  border-radius: 12px;
  color: var(--text-primary);
  font-size: 1rem;
  transition: all var(--transition-fast);
}

.search-box input:focus {
  outline: none;
  border-color: var(--accent-primary);
  box-shadow: 0 0 0 3px var(--accent-glow);
}

.search-box::before {
  content: "\1F50D";
  position: absolute;
  left: 1rem;
  top: 50%;
  transform: translateY(-50%);
  font-size: 1.1rem;
  color: var(--text-muted);
  pointer-events: none;
  z-index: 1;
}

.filter-section h4 {
  font-size: 0.875rem;
  text-transform: uppercase;
  letter-spacing: 0.05em;
  color: var(--text-muted);
  margin-bottom: 0.75rem;
}

/* Category Navigation */
.category-nav {
  padding: 0.5rem 0 1.5rem;
}

.category-tabs {
  display: flex;
  justify-content: center;
  gap: 0.75rem;
  flex-wrap: wrap;
}

.category-tab {
  padding: 0.65rem 1.4rem;
  color: var(--text-muted);
  font-size: 0.85rem;
  font-weight: 600;
  cursor: pointer;
  transition: all 0.3s ease;
  border-radius: 12px;
  background: var(--glass-bg);
  border: 1px solid var(--glass-border);
  position: relative;
  letter-spacing: 0.02em;
}

.category-tab:hover {
  color: var(--text-primary);
  border-color: var(--accent-primary);
  transform: translateY(-2px);
  box-shadow: 0 4px 20px rgba(156, 90, 68, 0.15);
}

.category-tab.active {
  color: white;
  background: rgba(176, 68, 44, 0.10);
  border-color: var(--accent-primary);
  box-shadow: var(--shadow-sm);
}

.filter-tags {
  display: flex;
  flex-wrap: wrap;
  gap: 0.75rem;
  max-height: 4.5rem;
  overflow: hidden;
  position: relative;
  transition: max-height 0.35s ease;
}

.filter-tags.expanded {
  max-height: 60rem;
}

.filter-tags:not(.expanded)::after {
  content: '';
  position: absolute;
  inset: auto 0 0 0;
  height: 1.5rem;
  pointer-events: none;
  background: linear-gradient(to bottom, transparent, var(--glass-bg));
}

.filter-section-toggle {
  margin-top: 0.6rem;
  background: transparent;
  border: 1px solid var(--border-color);
  border-radius: 6px;
  color: var(--text-secondary);
  padding: 0.32rem 0.85rem;
  font-size: 0.78rem;
  cursor: pointer;
  font-family: inherit;
  transition: all var(--transition-fast);
}

.filter-section-toggle:hover {
  border-color: var(--accent-primary);
  color: var(--accent-primary);
}

.filter-tag {
  padding: 0.5rem 1rem;
  background: var(--bg-tertiary);
  border: 1px solid var(--border-color);
  border-radius: 20px;
  color: var(--text-secondary);
  font-size: 0.875rem;
  cursor: pointer;
  transition: all var(--transition-fast);
  font-weight: 500;
}

.filter-tag:hover {
  background: var(--accent-primary);
  color: var(--bg-primary);
  border-color: var(--accent-primary);
  transform: translateY(-2px);
  box-shadow: var(--shadow-glow);
}

.filter-tag.active {
  background: var(--accent-gradient);
  color: white;
  border-color: transparent;
  box-shadow: var(--shadow-glow);
}

/* ========================================
   Blog Posts Grid
   ======================================== */


/* ========================================
   Posts Grid (unchanged definition)
   ======================================== */

.posts-grid {
  display: grid;
  grid-template-columns: repeat(auto-fill, minmax(350px, 1fr));
  gap: 2rem;
  margin-bottom: 3rem;
}

.post-card {
  background: var(--glass-bg);
  border: 1px solid var(--glass-border);
  border-radius: 16px;
  padding: 2rem;
  transition: all var(--transition-normal);
  cursor: pointer;
  animation: fadeInUp 0.6s ease both;
  display: flex;
  flex-direction: column;
}

.post-card:hover {
  transform: translateY(-8px);
  box-shadow: var(--shadow-lg);
  border-color: var(--accent-primary);
}

@media (max-width: 768px) {
  .post-card:hover { transform: translateY(-2px); }
  .demo-card:hover { transform: translateY(-2px); }
  .about-section:hover { transform: translateY(-2px); }
}

.post-card-category {
  display: inline-block;
  padding: 0.25rem 0.7rem;
  background: var(--accent-gradient);
  border-radius: 20px;
  font-size: 0.7rem;
  font-weight: 600;
  color: white;
  letter-spacing: 0.03em;
  width: fit-content;
  margin-bottom: 0.85rem;
}

/* Category-specific accent colors (muted earth tones, solid) */
.post-card-category[data-category="Bandits & Personalization"] { background: #9c5a44; }
.post-card-category[data-category="Bidding & Auction"]         { background: #5a6b7a; }
.post-card-category[data-category="ML Infrastructure"]         { background: #a8783a; }
.post-card-category[data-category="Measurement & Modeling"]    { background: #5f7a63; }
.post-card-category[data-category="DevOps & Tooling"]          { background: #7d5e72; }
.post-card-category[data-category="Targeting & Audience"]      { background: #9a7d38; }

/* Subtle left border accent on card itself (matches category) */
.post-card[data-category="Bandits & Personalization"] { border-left: 3px solid #9c5a44; }
.post-card[data-category="Bidding & Auction"]         { border-left: 3px solid #5a6b7a; }
.post-card[data-category="ML Infrastructure"]          { border-left: 3px solid #a8783a; }
.post-card[data-category="Measurement & Modeling"]    { border-left: 3px solid #5f7a63; }
.post-card[data-category="DevOps & Tooling"]          { border-left: 3px solid #7d5e72; }
.post-card[data-category="Targeting & Audience"]      { border-left: 3px solid #9a7d38; }

.post-card-excerpt {
  font-size: 0.9rem;
  color: var(--text-secondary);
  line-height: 1.6;
  margin-bottom: 1.25rem;
  flex: 1;
  display: -webkit-box;
  -webkit-line-clamp: 3;
  -webkit-box-orient: vertical;
  overflow: hidden;
}

.post-card-footer {
  margin-top: auto;
  padding-top: 0.75rem;
  border-top: 1px solid rgba(255, 255, 255, 0.06);
}

.post-meta {
  display: flex;
  gap: 0.4rem;
  margin-bottom: 0.75rem;
  align-items: center;
}

.post-meta-sep {
  color: var(--text-muted);
  font-size: 0.75rem;
}

.post-date,
.post-read-time {
  color: var(--text-muted);
  font-size: 0.75rem;
  display: flex;
  align-items: center;
}

.post-card h3 {
  font-size: 1.2rem;
  margin-bottom: 0.65rem;
  color: var(--text-primary);
  transition: color var(--transition-fast);
  line-height: 1.45;
  font-weight: 700;
}

.post-card:hover h3 {
  color: var(--accent-primary);
}

.post-tags {
  display: flex;
  flex-wrap: wrap;
  gap: 0.5rem;
  margin-top: 0;
}

.tag {
  padding: 0.25rem 0.75rem;
  background: var(--bg-tertiary);
  border: 1px solid var(--border-color);
  border-radius: 12px;
  font-size: 0.75rem;
  color: var(--accent-primary);
  font-weight: 500;
  transition: all var(--transition-fast);
  cursor: pointer;
}

.tag:hover {
  background: var(--accent-primary);
  color: var(--bg-primary);
  transform: scale(1.05);
}

/* ========================================
   Post Detail Page
   ======================================== */

.post-header {
  text-align: center;
  padding: 4rem 0 0.5rem;
  max-width: 1100px;
  margin: 0 auto;
}

.post-header h1 {
  font-size: 3rem;
  margin-bottom: 1rem;
}

.post-categories {
  display: flex;
  gap: 0.75rem;
  justify-content: center;
  margin-bottom: 1rem;
  flex-wrap: wrap;
}

.category-badge {
  padding: 0.5rem 1rem;
  background: var(--accent-gradient);
  border-radius: 20px;
  font-size: 0.875rem;
  font-weight: 600;
  color: white;
}

/* Post header tag pills (replaces category badge, styled same but clickable) */
.post-header-tags {
  display: flex;
  gap: 0.6rem;
  justify-content: center;
  flex-wrap: wrap;
  margin-top: 0.85rem;
  margin-bottom: 0.5rem;
}

.post-header-tag {
  display: inline-block;
  padding: 0.4rem 1rem;
  background: var(--accent-gradient);
  border-radius: 20px;
  font-size: 0.8rem;
  font-weight: 600;
  color: white;
  cursor: pointer;
  transition: opacity var(--transition-fast), transform var(--transition-fast);
}

.post-header-tag:hover {
  opacity: 0.8;
  transform: translateY(-1px);
}

.post-content {
  max-width: 1100px;
  margin: 0 auto;
  padding: 3rem 2.5rem;
  background: var(--glass-bg);
  border: 1px solid var(--glass-border);
  border-radius: 16px;
  box-shadow: var(--shadow-md);
}

/* --- Improved Markdown Styling --- */

.post-content h1,
.post-content h2,
.post-content h3,
.post-content h4,
.post-content h5,
.post-content h6 {
  margin-bottom: 1rem;
  color: var(--text-primary);
}

.post-content h2 {
  font-size: 1.75rem;
  border-bottom: 1px solid var(--border-color);
  border-left: 4px solid var(--accent-primary);
  padding: 0.5rem 0 0.6rem 1rem;
  color: var(--accent-primary);
  margin-left: -1rem;
  margin-top: 3.5rem;
}

.post-content h2:first-child {
  margin-top: 0;
}

.post-content h3 {
  font-size: 1.3rem;
  color: var(--text-primary);
  border-left: 3px solid rgba(125, 94, 114, 0.6);
  padding-left: 0.75rem;
  margin-left: -0.75rem;
  margin-top: 2.5rem;
  font-weight: 600;
}

.post-content h4 {
  font-size: 1.1rem;
  color: var(--text-primary);
  font-weight: 600;
  margin-top: 2rem;
}

[data-theme="light"] .post-content h3 {
  color: var(--text-primary);
}

.post-content p {
  margin-bottom: 1.25rem;
  line-height: 1.85;
  font-size: 1.0625rem;
  color: var(--text-secondary);
}

[data-theme="light"] .post-content p {
  color: var(--text-secondary);
}

.post-content ul,
.post-content ol {
  margin-bottom: 1.4rem;
  padding-left: 2rem;
  color: var(--text-secondary);
}

[data-theme="light"] .post-content ul,
[data-theme="light"] .post-content ol {
  color: var(--text-secondary);
}

.post-content li {
  margin-bottom: 0.5rem;
  line-height: 1.75;
}

.post-content li > ul,
.post-content li > ol {
  margin-top: 0.4rem;
  margin-bottom: 0.4rem;
}

.post-content li::marker {
  color: var(--accent-primary);
}

.post-content blockquote {
  border-left: 4px solid var(--accent-primary);
  padding: 1.1rem 1.5rem;
  margin: 2rem 0;
  background: var(--bg-tertiary);
  border-radius: 0 8px 8px 0;
  color: #d0d8e4;
  font-style: normal;
}

[data-theme="light"] .post-content blockquote {
  background: var(--bg-tertiary);
  color: var(--text-secondary);
}

.post-content blockquote p {
  margin-bottom: 0;
}

.post-content .code-block-wrapper {
  position: relative;
  margin: 2rem 0;
}

.post-content .code-header {
  display: flex;
  align-items: center;
  justify-content: space-between;
  background: var(--bg-tertiary);
  border: 1px solid var(--border-color);
  border-bottom: none;
  border-radius: 8px 8px 0 0;
  padding: 0.5rem 1rem;
}

.post-content .code-lang {
  font-family: 'Fira Code', monospace;
  font-size: 0.75rem;
  color: var(--text-muted);
  text-transform: uppercase;
  letter-spacing: 0.08em;
}

.post-content .copy-btn {
  background: transparent;
  border: 1px solid var(--border-color);
  border-radius: 4px;
  color: var(--text-muted);
  font-size: 0.75rem;
  padding: 0.25rem 0.6rem;
  cursor: pointer;
  transition: all var(--transition-fast);
  font-family: var(--font-sans);
}

.post-content .copy-btn:hover {
  background: var(--accent-primary);
  color: var(--bg-primary);
  border-color: var(--accent-primary);
}

.post-content .copy-btn.copied {
  color: #4ade80;
  border-color: #4ade80;
}

.post-content pre {
  background: var(--bg-tertiary);
  padding: 1.5rem;
  border-radius: 8px;
  overflow-x: auto;
  margin: 0;
  border: 1px solid var(--border-color);
  box-shadow: inset 0 2px 4px rgba(0, 0, 0, 0.3);
}

.post-content .code-block-wrapper pre {
  border-radius: 0 0 8px 8px;
}

[data-theme="light"] .post-content .code-header {
  background: #e8ecf1;
}

[data-theme="light"] .post-content pre {
  background: #fafbfc !important;
  box-shadow: inset 0 2px 4px rgba(0, 0, 0, 0.06);
}

[data-theme="light"] .post-content pre code {
  background: transparent;
  color: #383a42;
}

[data-theme="light"] .post-content pre code.hljs {
  background: transparent !important;
  color: #383a42;
}

[data-theme="light"] .post-content .hljs-keyword,
[data-theme="light"] .post-content .hljs-selector-tag,
[data-theme="light"] .post-content .hljs-type { color: #a626a4; }

[data-theme="light"] .post-content .hljs-string,
[data-theme="light"] .post-content .hljs-attr { color: #50a14f; }

[data-theme="light"] .post-content .hljs-number,
[data-theme="light"] .post-content .hljs-literal { color: #986801; }

[data-theme="light"] .post-content .hljs-comment { color: #a0a1a7; }

[data-theme="light"] .post-content .hljs-built_in,
[data-theme="light"] .post-content .hljs-title { color: #4078f2; }

[data-theme="light"] .post-content .hljs-function { color: #4078f2; }

[data-theme="light"] .post-content .hljs-params { color: #383a42; }

[data-theme="light"] .post-content code {
  background: rgba(0, 0, 0, 0.06);
}

[data-theme="light"] .post-content .copy-btn {
  color: var(--text-muted);
  border-color: var(--border-color);
}

[data-theme="light"] .post-content .code-lang {
  color: var(--text-muted);
}

.post-content code {
  font-family: 'Fira Code', monospace;
  background: rgba(255, 255, 255, 0.12);
  padding: 0.2em 0.45em;
  border-radius: 4px;
  font-size: 0.875em;
  color: #e2b96f;
  border: 1px solid rgba(255, 255, 255, 0.1);
}

.post-content pre code {
  background: none;
  padding: 0;
  color: inherit;
  font-size: 0.9rem;
  border: none;
}

/* Mermaid Diagrams */
.post-content pre.mermaid {
  background: transparent;
  border: none;
  box-shadow: none;
  text-align: center;
  margin: 2rem 0;
  padding: 1.5rem 1rem;
  overflow-x: auto;
}

.post-content img {
  max-width: 100%;
  height: auto;
  border-radius: 8px;
  margin: 2rem auto;
  display: block;
  box-shadow: var(--shadow-md);
}

.post-content .table-wrapper {
  overflow-x: auto;
  margin: 2rem 0;
  border-radius: 8px;
  border: 1px solid var(--border-color);
}

.post-content table {
  width: 100%;
  border-collapse: collapse;
  background: var(--bg-tertiary);
  border-radius: 8px;
  overflow: hidden;
  margin: 0;
}

.post-content th,
.post-content td {
  padding: 0.875rem 1rem;
  border-bottom: 1px solid var(--border-color);
  text-align: left;
}

.post-content td {
  white-space: normal;
  color: #d0d8e4;
}

[data-theme="light"] .post-content td {
  color: var(--text-secondary);
}

.post-content th {
  background: rgba(90, 107, 122, 0.07);
  font-weight: 600;
  color: var(--accent-primary);
  font-size: 0.875rem;
  letter-spacing: 0.02em;
}

.post-content tr:nth-child(even) td {
  background: rgba(255, 255, 255, 0.025);
}

.post-content tr:hover td {
  background: rgba(90, 107, 122, 0.05);
}

.post-content tr:last-child td {
  border-bottom: none;
}

.post-content hr {
  border: 0;
  height: 1px;
  background: var(--border-color);
  margin: 3rem 0;
}

.post-content strong {
  color: var(--text-primary);
  font-weight: 700;
}

.post-content a {
  text-decoration: underline;
  text-underline-offset: 4px;
}

/* ========================================
   Post Navigation (Prev / Next)
   ======================================== */

.post-nav {
  display: flex;
  justify-content: space-between;
  gap: 1.5rem;
  max-width: 1100px;
  margin: 3rem auto 0;
  padding: 0 2rem;
}

.post-nav-link {
  display: flex;
  flex-direction: column;
  gap: 0.35rem;
  padding: 1.25rem 1.5rem;
  background: var(--glass-bg);
  border: 1px solid var(--glass-border);
  border-radius: 12px;
  flex: 1;
  max-width: 48%;
  transition: all var(--transition-fast);
  text-decoration: none;
}

.post-nav-link:hover {
  border-color: var(--accent-primary);
  transform: translateY(-3px);
  box-shadow: var(--shadow-md);
}

.post-nav-next {
  text-align: right;
  margin-left: auto;
}

.post-nav-label {
  font-size: 0.75rem;
  text-transform: uppercase;
  letter-spacing: 0.05em;
  color: var(--text-muted);
  font-weight: 600;
}

.post-nav-title {
  font-size: 0.95rem;
  color: var(--accent-primary);
  font-weight: 600;
  display: -webkit-box;
  -webkit-line-clamp: 2;
  -webkit-box-orient: vertical;
  overflow: hidden;
}

/* ========================================
   Related Posts
   ======================================== */

.related-posts {
  max-width: 1100px;
  margin: 3rem auto 0;
  padding: 0 2rem;
}

.related-posts-title {
  font-size: 1.25rem;
  color: var(--text-primary);
  margin-bottom: 1.25rem;
  padding-bottom: 0.5rem;
  border-bottom: 1px solid var(--border-color);
}

.related-posts-grid {
  display: grid;
  grid-template-columns: repeat(auto-fill, minmax(280px, 1fr));
  gap: 1.25rem;
}

.related-post-card {
  display: flex;
  flex-direction: column;
  gap: 0.4rem;
  padding: 1.25rem;
  background: var(--glass-bg);
  border: 1px solid var(--glass-border);
  border-radius: 12px;
  transition: all var(--transition-fast);
  text-decoration: none;
}

.related-post-card:hover {
  border-color: var(--accent-primary);
  transform: translateY(-3px);
  box-shadow: var(--shadow-md);
}

.related-post-date {
  font-size: 0.75rem;
  color: var(--text-muted);
}

.related-post-name {
  font-size: 0.95rem;
  font-weight: 600;
  color: var(--accent-primary);
  display: -webkit-box;
  -webkit-line-clamp: 2;
  -webkit-box-orient: vertical;
  overflow: hidden;
}

.related-post-excerpt {
  font-size: 0.8rem;
  color: var(--text-secondary);
  display: -webkit-box;
  -webkit-line-clamp: 2;
  -webkit-box-orient: vertical;
  overflow: hidden;
}

/* ========================================
   Reading Progress Bar
   ======================================== */

.reading-progress {
  position: fixed;
  top: 0;
  left: 0;
  height: 3px;
  width: 0%;
  background: var(--accent-gradient);
  z-index: 1100;
  transition: width 0.1s linear;
  box-shadow: 0 0 8px var(--accent-glow);
}

/* ========================================
   Post TOC Sidebar
   ======================================== */

/* === TOC top: "← All Posts" + "Contents" label === */
.toc-top {
  padding: 0 1.5rem 0.9rem;
  margin: 0 0 0.75rem;
  border-bottom: 1px solid var(--border-color);
}

.toc-back {
  display: inline-flex;
  align-items: center;
  gap: 0.4rem;
  padding: 0.25rem 0;
  font-size: 0.78rem;
  color: #8b96b3;
  font-weight: 500;
  text-decoration: none;
  transition: color var(--transition-fast);
}

.toc-back:hover {
  color: var(--accent-primary);
}

.toc-back-arrow {
  display: inline-block;
  transition: transform var(--transition-fast);
}

.toc-back:hover .toc-back-arrow {
  transform: translateX(-3px);
}

.toc-title {
  margin-top: 0.75rem;
  font-size: 0.66rem;
  letter-spacing: 0.18em;
  text-transform: uppercase;
  color: var(--text-muted);
  font-weight: 700;
}

/* === TOC list with vertical guide line === */
.toc-list {
  position: relative;
  padding: 0.25rem 1.5rem 2rem;
  display: flex;
  flex-direction: column;
  gap: 0.05rem;
}

.toc-list::before {
  content: '';
  position: absolute;
  left: calc(1.5rem + 3.5px);
  top: 0.75rem;
  bottom: 1.5rem;
  width: 1px;
  background: var(--bg-secondary);
  pointer-events: none;
}

/* === Item base === */
.toc-item {
  position: relative;
  display: flex;
  align-items: center;
  gap: 0.7rem;
  padding: 0.38rem 0;
  color: var(--text-secondary);
  text-decoration: none;
  background: transparent;
  border: none;
  border-left: none;
  border-radius: 0;
  transition: color var(--transition-fast), text-shadow var(--transition-fast);
  line-height: 1.4;
}

.toc-item:hover {
  color: #f0f4ff;
  background: transparent;
  border-left: none;
  text-decoration: none;
}

.toc-item.active {
  color: var(--accent-primary);
  font-weight: 600;
  background: transparent;
  border-left: none;
}

.toc-text {
  flex: 1;
  word-break: keep-all;
  overflow-wrap: anywhere;
}

/* === H2: main section with outlined dot === */
.toc-h2 {
  font-size: 0.87rem;
  color: #a9b3d0;
  font-weight: 600;
  margin-top: 0.4rem;
}

.toc-h2:hover {
  color: #ffffff;
}

.toc-h2.active {
  color: var(--accent-primary);
}

.toc-h2 .toc-dot {
  width: 8px;
  height: 8px;
  border-radius: 50%;
  background: var(--bg-tertiary);
  border: 1.5px solid var(--text-muted);
  flex-shrink: 0;
  transition: all var(--transition-fast);
  z-index: 1;
}

.toc-h2:hover .toc-dot {
  border-color: #ffffff;
  background: rgba(255, 255, 255, 0.15);
}

.toc-h2.active .toc-dot {
  background: var(--accent-primary);
  border-color: var(--accent-primary);
  box-shadow: 0 0 0 3px rgba(176, 68, 44, 0.4);
}

/* === H3: sub-heading with short dash === */
.toc-h3 {
  font-size: 0.79rem;
  padding-left: 1.6rem;
  color: #6c7592;
}

.toc-h3 .toc-dot {
  width: 0.85rem;
  height: 1px;
  background: var(--border-color);
  flex-shrink: 0;
  margin-left: -0.85rem;
  border-radius: 0;
  transition: background var(--transition-fast), width var(--transition-fast);
}

.toc-h3:hover .toc-dot,
.toc-h3.active .toc-dot {
  background: var(--accent-primary);
  width: 1.05rem;
}

.toc-h3:hover {
  color: #dde3f5;
}

.toc-h3.active {
  color: var(--accent-primary);
}

/* === Light theme color adjustments === */
[data-theme="light"] .toc-back { color: var(--text-muted); }
[data-theme="light"] .toc-title { color: var(--text-muted); }
[data-theme="light"] .toc-item { color: var(--text-secondary); }
[data-theme="light"] .toc-item:hover { color: var(--text-primary); }
[data-theme="light"] .toc-h2 { color: var(--text-secondary); }
[data-theme="light"] .toc-h2:hover { color: var(--text-primary); }
[data-theme="light"] .toc-h3 { color: var(--text-muted); }
[data-theme="light"] .toc-h3:hover { color: var(--text-secondary); }

[data-theme="light"] .toc-h2 .toc-dot {
  background: var(--bg-primary);
}


/* ========================================
   About Page
   ======================================== */

.about-content {
  max-width: 1100px;
  margin: 0 auto;
  padding: 3rem 2rem;
}

.about-hero {
  text-align: center;
  padding: 4rem 0 2rem;
}

.about-section {
  background: var(--glass-bg);
  border: 1px solid var(--glass-border);
  border-radius: 16px;
  padding: 2.5rem 3rem;
  margin-bottom: 2rem;
  box-shadow: var(--shadow-md);
  transition: all var(--transition-normal);
}

.about-section:hover {
  transform: translateY(-4px);
  box-shadow: var(--shadow-lg);
  border-color: var(--accent-primary);
}

.about-section h2 {
  color: var(--accent-primary);
  margin-bottom: 1.25rem;
}

.about-section p {
  line-height: 1.8;
  color: var(--text-secondary);
  margin-bottom: 0.75rem;
}

.about-section ul {
  padding-left: 1.5rem;
  margin-top: 0.75rem;
}

.about-section li {
  margin-bottom: 0.6rem;
  line-height: 1.7;
  color: var(--text-secondary);
}

@media (max-width: 768px) {
  .about-section {
    padding: 1.75rem 1.5rem;
  }
}

.contact-links {
  display: flex;
  gap: 1rem;
  margin-top: 1.5rem;
  flex-wrap: wrap;
}

.contact-btn {
  padding: 0.75rem 1.5rem;
  background: var(--accent-gradient);
  border-radius: 8px;
  color: white;
  font-weight: 600;
  transition: all var(--transition-fast);
  display: inline-block;
  text-decoration: none;
}

.contact-btn:hover {
  transform: translateY(-2px);
  box-shadow: var(--shadow-glow);
  color: white;
}

/* ========================================
   Footer
   ======================================== */

footer {
  background: var(--bg-secondary);
  border-top: 1px solid var(--border-color);
  padding: 3rem 0;
  margin-top: 4rem;
  text-align: center;
}

.footer-content {
  max-width: 1200px;
  margin: 0 auto;
  padding: 0 2rem;
}

.footer-links {
  display: flex;
  justify-content: center;
  gap: 2rem;
  margin-bottom: 1rem;
  flex-wrap: wrap;
}

.footer-text {
  color: var(--text-muted);
  font-size: 0.875rem;
}

/* ========================================
   Animations
   ======================================== */

@keyframes fadeInUp {
  from {
    opacity: 0;
    transform: translateY(30px);
  }

  to {
    opacity: 1;
    transform: translateY(0);
  }
}

@keyframes pulse {

  0%,
  100% {
    opacity: 1;
  }

  50% {
    opacity: 0.5;
  }
}

.loading {
  animation: pulse 1.5s ease-in-out infinite;
  text-align: center;
  padding: 2rem;
  color: var(--accent-primary);
  font-size: 1.2rem;
}

/* ========================================
   Sidebar Navigation
   ======================================== */

.sidebar {
  position: fixed;
  left: 0;
  top: 70px;
  /* Below header */
  width: 280px;
  height: calc(100vh - 70px);
  background: var(--glass-bg);
  border-right: 1px solid var(--glass-border);
  overflow-y: auto;
  z-index: 900;
  transition: transform var(--transition-normal);
  padding: 2rem 0;
}

.sidebar::-webkit-scrollbar {
  width: 6px;
}

.sidebar::-webkit-scrollbar-track {
  background: var(--bg-secondary);
}

.sidebar::-webkit-scrollbar-thumb {
  background: var(--accent-primary);
  border-radius: 3px;
}

.sidebar-header {
  padding: 0 1.5rem 1rem;
  border-bottom: 1px solid var(--border-color);
  margin-bottom: 1rem;
}

.sidebar-header h3 {
  font-size: 1.125rem;
  font-weight: 600;
  letter-spacing: 0.02em;
  color: var(--text-primary);
  margin: 0;
}

.sidebar-nav {
  padding: 0 1rem;
  display: flex;
  flex-direction: column;
  gap: 1rem;
}

.sidebar-category {
  margin-bottom: 0;
  display: block;
  width: 100%;
  background: var(--bg-secondary);
  border-radius: 10px;
  overflow: hidden;
  transition: all var(--transition-normal);
  border: 1px solid var(--border-color);
}

.sidebar-category:hover {
  box-shadow: var(--shadow-sm);
}

.category-header {
  display: flex;
  align-items: center;
  gap: 0.75rem;
  padding: 1rem 1rem;
  color: var(--text-primary);
  font-weight: 600;
  font-size: 0.9rem;
  cursor: pointer;
  transition: all var(--transition-fast);
  user-select: none;
  background: transparent;
  letter-spacing: 0.02em;
}

.category-header:hover {
  background: var(--bg-tertiary);
  color: var(--accent-primary);
}

.category-icon {
  font-size: 0.7rem;
  transition: transform var(--transition-fast);
  display: inline-block;
  color: var(--text-muted);
  min-width: 12px;
}

.sidebar-category.collapsed .category-icon {
  transform: rotate(-90deg);
}

.category-posts {
  margin-left: 0;
  padding: 0 1rem 1rem 1rem;
  max-height: 1000px;
  overflow: hidden;
  transition: max-height var(--transition-normal), opacity var(--transition-normal), padding var(--transition-normal);
}

.sidebar-category.collapsed .category-posts {
  max-height: 0;
  opacity: 0;
  padding: 0 1rem;
}

.sidebar-post-link {
  display: block;
  padding: 0.7rem 1rem;
  color: var(--text-secondary);
  font-size: 0.85rem;
  border-radius: 6px;
  transition: all var(--transition-fast);
  margin-bottom: 0.5rem;
  position: relative;
  word-wrap: break-word;
  overflow-wrap: break-word;
  white-space: normal;
  line-height: 1.5;
  border: 1px solid transparent;
  background: transparent;
  font-weight: 400;
}

.sidebar-post-link:hover {
  background: var(--bg-tertiary);
  color: var(--accent-primary);
  border-color: var(--border-color);
  transform: translateX(4px);
  font-weight: 500;
}

.sidebar-post-link.active {
  background: var(--bg-tertiary);
  color: var(--accent-primary);
  font-weight: 600;
  border-color: var(--accent-primary);
}

.sidebar-post-link.active::before {
  display: none;
}

/* Sidebar Toggle Button (Mobile) */
.sidebar-toggle {
  position: fixed;
  left: 1rem;
  bottom: 1rem;
  width: 50px;
  height: 50px;
  background: var(--accent-gradient);
  border: none;
  border-radius: 50%;
  color: white;
  font-size: 1.5rem;
  cursor: pointer;
  box-shadow: var(--shadow-lg);
  z-index: 1001;
  display: none;
  align-items: center;
  justify-content: center;
  transition: all var(--transition-fast);
}

.sidebar-toggle:hover {
  transform: scale(1.1);
  box-shadow: var(--shadow-glow);
}

/* ========================================
   Media Queries
   ======================================== */

@media (max-width: 1024px) {
  .sidebar {
    transform: translateX(-100%);
  }

  .sidebar.visible {
    transform: translateX(0);
  }

  .with-sidebar {
    margin-left: 0;
    width: 100%;
  }

  .sidebar-toggle {
    display: flex;
  }
}

@media (min-width: 1025px) {
  .with-sidebar {
    margin-left: 280px;
    width: calc(100% - 280px);
  }

  .sidebar {
    transform: translateX(0);
  }
}

@media (max-width: 768px) {
  h1 {
    font-size: 2.5rem;
  }

  h2 {
    font-size: 2rem;
  }

  h3 {
    font-size: 1.4rem;
  }

  h4 {
    font-size: 1.25rem;
  }

  h5 {
    font-size: 1.1rem;
  }

  h6 {
    font-size: 0.95rem;
  }

  .hero {
    padding: 3rem 0 1.5rem;
  }

  .hero h1 {
    font-size: 2rem;
  }

  .search-filter-bar {
    padding: 1.5rem;
  }

  .posts-grid {
    grid-template-columns: 1fr;
  }

  .post-content {
    padding: 2rem 1.5rem;
  }

  .nav-links {
    gap: 1rem;
  }

  .nav-content {
    gap: 1rem;
  }

  .btn-demo {
    padding: 0.4rem 0.8rem;
    font-size: 0.8rem;
  }

  .post-nav {
    flex-direction: column;
  }

  .post-nav-link {
    max-width: 100%;
  }

  .related-posts-grid {
    grid-template-columns: 1fr;
  }

  .post-content img {
    margin: 1rem auto;
  }
}

/* ========================================
   Accessibility
   ======================================== */

:focus-visible {
  outline: 2px solid var(--accent-primary);
  outline-offset: 2px;
}

@media (prefers-reduced-motion: reduce) {
  *,
  *::before,
  *::after {
    animation-duration: 0.01ms !important;
    transition-duration: 0.01ms !important;
  }
}

/* ========================================
   Custom Chart Components
   ======================================== */

/* --- Layer Diagram (Architecture) --- */
.chart-layer {
  display: flex;
  flex-direction: column;
  gap: 12px;
  padding: 24px;
  background: var(--bg-secondary);
  border-radius: 16px;
  border: 1px solid var(--border-color);
  margin: 2rem 0;
  overflow-x: auto;
}

.chart-layer-title {
  font-size: 0.75rem;
  font-weight: 700;
  text-transform: uppercase;
  letter-spacing: 0.1em;
  color: var(--text-muted);
  margin-bottom: 4px;
}

.chart-layer-row {
  display: flex;
  gap: 10px;
  align-items: stretch;
  min-height: 64px;
}

.chart-layer-group {
  flex: 1;
  min-width: 0;
  background: var(--bg-tertiary);
  border-radius: 12px;
  padding: 14px 16px;
  border: 1px solid var(--border-color);
  transition: var(--transition-fast);
  position: relative;
}

.chart-layer-group:hover {
  border-color: var(--accent-primary);
  transform: translateY(-1px);
}

.chart-layer-group-label {
  font-size: 0.7rem;
  font-weight: 600;
  text-transform: uppercase;
  letter-spacing: 0.08em;
  color: var(--text-muted);
  margin-bottom: 8px;
}

.chart-layer-items {
  display: flex;
  flex-wrap: wrap;
  gap: 6px;
}

.chart-layer-item {
  display: inline-flex;
  align-items: center;
  gap: 6px;
  padding: 6px 12px;
  border-radius: 8px;
  font-size: 0.8rem;
  font-weight: 500;
  color: var(--text-primary);
  white-space: nowrap;
}

.chart-layer-item.blue { background: rgba(90, 107, 122, 0.2); border: 1px solid rgba(90, 107, 122, 0.4); }
.chart-layer-item.cyan { background: rgba(90, 107, 122, 0.15); border: 1px solid rgba(90, 107, 122, 0.3); }
.chart-layer-item.purple { background: rgba(125, 94, 114, 0.2); border: 1px solid rgba(125, 94, 114, 0.4); }
.chart-layer-item.pink { background: rgba(156, 90, 68, 0.2); border: 1px solid rgba(156, 90, 68, 0.4); }
.chart-layer-item.orange { background: rgba(168, 120, 58, 0.2); border: 1px solid rgba(168, 120, 58, 0.4); }
.chart-layer-item.yellow { background: rgba(154, 125, 56, 0.2); border: 1px solid rgba(154, 125, 56, 0.5); color: var(--text-primary); }
.chart-layer-item.green { background: rgba(95, 122, 99, 0.2); border: 1px solid rgba(95, 122, 99, 0.4); }

.chart-layer-arrow {
  display: flex;
  justify-content: center;
  align-items: center;
  color: var(--text-muted);
  font-size: 1.4rem;
  padding: 2px 0;
}

/* --- Timeline (Horizontal) --- */
.chart-timeline {
  padding: 24px;
  background: var(--bg-secondary);
  border-radius: 16px;
  border: 1px solid var(--border-color);
  margin: 2rem 0;
  overflow-x: auto;
}

.chart-timeline-bar {
  position: relative;
  height: 52px;
  background: var(--bg-tertiary);
  border-radius: 10px;
  margin: 16px 0 8px;
  display: flex;
  align-items: center;
  overflow: hidden;
}

.chart-timeline-segment {
  height: 100%;
  display: flex;
  align-items: center;
  justify-content: center;
  font-size: 0.75rem;
  font-weight: 600;
  color: #fff;
  padding: 0 8px;
  position: relative;
  white-space: nowrap;
  transition: var(--transition-fast);
  cursor: default;
}

.chart-timeline-segment:hover {
  filter: brightness(1.2);
}

.chart-timeline-segment.blue { background: rgba(90, 107, 122, 0.7); }
.chart-timeline-segment.cyan { background: rgba(90, 107, 122, 0.5); }
.chart-timeline-segment.purple { background: rgba(125, 94, 114, 0.6); }
.chart-timeline-segment.pink { background: rgba(156, 90, 68, 0.6); }
.chart-timeline-segment.orange { background: rgba(168, 120, 58, 0.6); }
.chart-timeline-segment.green { background: rgba(95, 122, 99, 0.6); }

.chart-timeline-labels {
  display: flex;
  justify-content: space-between;
  font-size: 0.7rem;
  color: var(--text-muted);
  padding: 0 4px;
}

.chart-timeline-legend {
  display: flex;
  flex-wrap: wrap;
  gap: 12px;
  margin-top: 16px;
  padding-top: 12px;
  border-top: 1px solid var(--border-color);
}

.chart-timeline-legend-item {
  display: flex;
  align-items: center;
  gap: 6px;
  font-size: 0.78rem;
  color: var(--text-secondary);
}

.chart-timeline-legend-dot {
  width: 10px;
  height: 10px;
  border-radius: 3px;
  flex-shrink: 0;
}

/* --- Comparison Cards --- */
.chart-cards {
  display: grid;
  grid-template-columns: repeat(3, 1fr);
  gap: 16px;
  margin: 2rem 0;
}

.chart-card {
  background: var(--bg-secondary);
  border-radius: 16px;
  border: 1px solid var(--border-color);
  padding: 20px;
  transition: var(--transition-fast);
  display: flex;
  flex-direction: column;
}

.chart-card:hover {
  border-color: var(--accent-primary);
  transform: translateY(-2px);
}

.chart-card-header {
  display: flex;
  align-items: center;
  gap: 10px;
  margin-bottom: 16px;
  padding-bottom: 12px;
  border-bottom: 1px solid var(--border-color);
}

.chart-card-icon {
  width: 40px;
  height: 40px;
  border-radius: 10px;
  display: flex;
  align-items: center;
  justify-content: center;
  font-size: 1.2rem;
  flex-shrink: 0;
}

.chart-card-icon.yellow { background: rgba(154, 125, 56, 0.2); }
.chart-card-icon.orange { background: rgba(168, 120, 58, 0.2); }
.chart-card-icon.green { background: rgba(95, 122, 99, 0.2); }
.chart-card-icon.blue { background: rgba(90, 107, 122, 0.2); }
.chart-card-icon.pink { background: rgba(156, 90, 68, 0.2); }

.chart-card-name {
  font-size: 1rem;
  font-weight: 700;
  color: var(--text-primary);
}

.chart-card-subtitle {
  font-size: 0.75rem;
  color: var(--text-muted);
}

.chart-card-body {
  flex: 1;
}

.chart-card-row {
  display: flex;
  justify-content: space-between;
  padding: 8px 0;
  border-bottom: 1px solid var(--border-color);
  font-size: 0.82rem;
}

.chart-card-row:last-child {
  border-bottom: none;
}

.chart-card-row-label {
  color: var(--text-muted);
  font-weight: 500;
}

.chart-card-row-value {
  color: var(--text-primary);
  font-weight: 600;
  text-align: right;
}

.chart-card-tags {
  display: flex;
  flex-wrap: wrap;
  gap: 4px;
  margin-top: 12px;
}

.chart-card-tag {
  font-size: 0.7rem;
  padding: 3px 8px;
  border-radius: 6px;
  background: var(--bg-tertiary);
  color: var(--text-secondary);
  border: 1px solid var(--border-color);
}

/* --- Step Flow (Vertical) --- */
.chart-steps {
  display: flex;
  flex-direction: column;
  gap: 0;
  margin: 2rem 0;
  padding: 24px;
  background: var(--bg-secondary);
  border-radius: 16px;
  border: 1px solid var(--border-color);
}

.chart-step {
  display: flex;
  gap: 16px;
  align-items: flex-start;
  padding: 16px 0;
  position: relative;
}

.chart-step:not(:last-child) {
  border-bottom: none;
}

.chart-step-indicator {
  display: flex;
  flex-direction: column;
  align-items: center;
  flex-shrink: 0;
  width: 40px;
}

.chart-step-dot {
  width: 36px;
  height: 36px;
  border-radius: 50%;
  display: flex;
  align-items: center;
  justify-content: center;
  font-size: 0.85rem;
  font-weight: 700;
  color: #fff;
  flex-shrink: 0;
}

.chart-step-dot.green { background: rgba(95, 122, 99, 0.8); }
.chart-step-dot.yellow { background: rgba(154, 125, 56, 0.8); color: #333; }
.chart-step-dot.orange { background: rgba(168, 120, 58, 0.8); }
.chart-step-dot.pink { background: rgba(156, 90, 68, 0.8); }
.chart-step-dot.blue { background: rgba(90, 107, 122, 0.8); }

.chart-step-line {
  width: 2px;
  flex: 1;
  min-height: 16px;
  background: var(--border-color);
  margin-top: 4px;
}

.chart-step-content {
  flex: 1;
  min-width: 0;
}

.chart-step-title {
  font-size: 0.95rem;
  font-weight: 700;
  color: var(--text-primary);
  margin-bottom: 4px;
}

.chart-step-desc {
  font-size: 0.82rem;
  color: var(--text-secondary);
  line-height: 1.5;
}

.chart-step-badge {
  display: inline-block;
  font-size: 0.7rem;
  font-weight: 600;
  padding: 2px 8px;
  border-radius: 6px;
  margin-top: 6px;
}

.chart-step-badge.green { background: rgba(95, 122, 99, 0.2); color: #4bc0c0; }
.chart-step-badge.yellow { background: rgba(154, 125, 56, 0.2); color: #9a7d38; }
.chart-step-badge.orange { background: rgba(168, 120, 58, 0.2); color: #a8783a; }
.chart-step-badge.pink { background: rgba(156, 90, 68, 0.2); color: #9c5a44; }
.chart-step-badge.blue { background: rgba(90, 107, 122, 0.2); color: #5a6b7a; }

/* --- Architecture Diagram --- */
.chart-arch {
  padding: 24px;
  background: var(--bg-secondary);
  border-radius: 16px;
  border: 1px solid var(--border-color);
  margin: 2rem 0;
  display: flex;
  flex-direction: column;
  gap: 12px;
}

.chart-arch-section {
  background: var(--bg-tertiary);
  border-radius: 12px;
  padding: 16px;
  border: 1px solid var(--border-color);
  transition: var(--transition-fast);
}

.chart-arch-section:hover {
  border-color: var(--accent-primary);
}

.chart-arch-section-header {
  display: flex;
  align-items: center;
  gap: 8px;
  margin-bottom: 12px;
}

.chart-arch-section-icon {
  font-size: 1.1rem;
}

.chart-arch-section-title {
  font-size: 0.85rem;
  font-weight: 700;
  text-transform: uppercase;
  letter-spacing: 0.06em;
}

.chart-arch-section-title.purple { color: #7d5e72; }
.chart-arch-section-title.blue { color: #5a6b7a; }
.chart-arch-section-title.orange { color: #a8783a; }
.chart-arch-section-title.pink { color: #9c5a44; }

.chart-arch-grid {
  display: grid;
  grid-template-columns: repeat(auto-fit, minmax(140px, 1fr));
  gap: 8px;
}

.chart-arch-node {
  background: var(--bg-secondary);
  border-radius: 8px;
  padding: 10px 12px;
  border: 1px solid var(--border-color);
  text-align: center;
}

.chart-arch-node-name {
  font-size: 0.8rem;
  font-weight: 600;
  color: var(--text-primary);
}

.chart-arch-node-desc {
  font-size: 0.7rem;
  color: var(--text-muted);
  margin-top: 2px;
}

.chart-arch-connector {
  display: flex;
  justify-content: center;
  align-items: center;
  color: var(--text-muted);
  font-size: 1.2rem;
  padding: 2px 0;
}

/* --- Chart.js Container --- */
.chart-js-container {
  background: var(--bg-secondary);
  border-radius: 16px;
  border: 1px solid var(--border-color);
  padding: 24px;
  margin: 2rem 0;
}

.chart-js-container canvas {
  max-height: 350px;
}

/* --- Responsive --- */
@media (max-width: 768px) {
  .chart-cards {
    grid-template-columns: 1fr;
  }

  .chart-layer-row {
    flex-direction: column;
  }

  .chart-timeline {
    min-width: 500px;
  }

  .chart-arch-grid {
    grid-template-columns: 1fr 1fr;
  }
}

/* ========================================
   Breadcrumb (post detail)
   ======================================== */

.breadcrumb-container {
  max-width: 1200px;
  margin: 1.25rem auto 0;
  padding: 0 2rem;
}

.breadcrumb-container:empty {
  display: none;
}

.breadcrumb {
  display: flex;
  align-items: center;
  flex-wrap: wrap;
  gap: 0.4rem;
  font-size: 0.85rem;
  color: var(--text-muted);
  background: var(--glass-bg);
  border: 1px solid var(--glass-border);
  padding: 0.55rem 0.9rem;
  border-radius: 10px;
}

.breadcrumb a {
  color: var(--text-secondary);
  text-decoration: none;
  transition: color 0.15s;
}

.breadcrumb a:hover {
  color: var(--accent-primary);
}

.breadcrumb-sep {
  color: var(--text-muted);
}

.breadcrumb-current {
  color: var(--text-primary);
  font-weight: 600;
  max-width: 420px;
  overflow: hidden;
  text-overflow: ellipsis;
  white-space: nowrap;
}

@media (max-width: 768px) {
  .breadcrumb-container { padding: 0 1rem; margin-top: 0.8rem; }
  .breadcrumb { font-size: 0.78rem; padding: 0.45rem 0.75rem; }
  .breadcrumb-current { max-width: 180px; }
}

/* ========================================
   Continue Reading (top of article)
   ======================================== */

.continue-reading-top {
  margin: 1.25rem auto 0;
}

.continue-reading-top:empty {
  display: none;
}

.continue-reading-top .container {
  max-width: 1200px;
  margin: 0 auto;
  padding: 0 2rem;
}

.continue-reading-header {
  margin-bottom: 0.6rem;
}

.continue-reading-title-label {
  font-size: 0.72rem;
  letter-spacing: 0.12em;
  text-transform: uppercase;
  color: var(--text-muted);
  font-weight: 700;
}

.continue-reading-grid {
  display: grid;
  grid-template-columns: repeat(auto-fit, minmax(260px, 1fr));
  gap: 1rem;
}

.continue-reading-card {
  display: flex;
  flex-direction: column;
  gap: 0.35rem;
  padding: 1rem 1.15rem;
  background: var(--glass-bg);
  border: 1px solid var(--glass-border);
  border-radius: 12px;
  text-decoration: none;
  transition: all var(--transition-fast);
}

.continue-reading-card:hover {
  border-color: var(--accent-primary);
  transform: translateY(-2px);
  box-shadow: 0 6px 18px rgba(90, 107, 122, 0.12);
}

.continue-reading-label {
  font-size: 0.68rem;
  text-transform: uppercase;
  letter-spacing: 0.06em;
  color: var(--accent-primary);
  font-weight: 700;
}

.continue-reading-headline {
  font-size: 1rem;
  font-weight: 700;
  color: var(--text-primary);
  line-height: 1.35;
}

.continue-reading-excerpt {
  font-size: 0.8rem;
  color: var(--text-secondary);
  line-height: 1.5;
  display: -webkit-box;
  -webkit-line-clamp: 2;
  -webkit-box-orient: vertical;
  overflow: hidden;
}

.continue-reading-meta {
  font-size: 0.7rem;
  color: var(--text-muted);
  margin-top: auto;
}

@media (max-width: 768px) {
  .continue-reading-top .container { padding: 0 1rem; }
}

/* ========================================
   Post Nav — Tabs (시간순 / 같은 카테고리)
   ======================================== */

.post-nav-inner {
  max-width: 1200px;
  margin: 0 auto;
  padding: 0 2rem;
}

.post-nav-tabs {
  display: inline-flex;
  gap: 0.25rem;
  background: var(--bg-tertiary);
  padding: 0.25rem;
  border-radius: 10px;
  margin-bottom: 1rem;
  flex-wrap: wrap;
}

.post-nav-tab {
  background: transparent;
  border: none;
  color: var(--text-muted);
  padding: 0.45rem 0.9rem;
  border-radius: 8px;
  font-size: 0.82rem;
  font-weight: 600;
  cursor: pointer;
  transition: all var(--transition-fast);
  font-family: inherit;
}

.post-nav-tab:hover {
  color: var(--text-primary);
}

.post-nav-tab.active {
  background: var(--bg-primary);
  color: var(--accent-primary);
  box-shadow: var(--shadow-sm);
}

.post-nav-grid {
  display: grid;
  grid-template-columns: 1fr 1fr;
  gap: 1rem;
}

/* `hidden` attribute must beat `display: grid` */
.post-nav-grid[hidden] {
  display: none;
}

@media (max-width: 768px) {
  .post-nav-inner { padding: 0 1rem; }
  .post-nav-grid { grid-template-columns: 1fr; }
  .post-nav-tab { font-size: 0.76rem; padding: 0.4rem 0.7rem; }
}

/* ========================================
   Sidebar "Current" category highlight
   ======================================== */

.sidebar-category.is-current {
  border: 1px solid rgba(90, 107, 122, 0.25);
  background: rgba(90, 107, 122, 0.04);
  border-radius: 10px;
  padding: 0.15rem 0;
  margin-bottom: 0.5rem;
}

.category-current-tag {
  margin-left: 0.35rem;
  color: var(--accent-primary);
  font-style: normal;
  font-size: 0.7rem;
  opacity: 0.85;
}

/* ========================================
   Mobile Next-Post Floating CTA
   ======================================== */

.mobile-next-cta {
  position: fixed;
  left: 1rem;
  right: 1rem;
  bottom: 1rem;
  z-index: 950;
  display: flex;
  flex-direction: column;
  padding: 0.7rem 1rem;
  border-radius: 12px;
  background: var(--accent-primary);
  color: var(--bg-primary);
  text-decoration: none;
  box-shadow: 0 10px 30px rgba(0, 0, 0, 0.4);
}

.mobile-next-cta[hidden] {
  display: none;
}

.mobile-next-cta-label {
  font-size: 0.68rem;
  text-transform: uppercase;
  letter-spacing: 0.08em;
  font-weight: 700;
  opacity: 0.85;
}

.mobile-next-cta-title {
  font-size: 0.9rem;
  font-weight: 700;
  overflow: hidden;
  text-overflow: ellipsis;
  white-space: nowrap;
}

@media (min-width: 769px) {
  .mobile-next-cta { display: none !important; }
}

/* ========================================
   Post Search Modal
   ======================================== */

.search-modal {
  position: fixed;
  inset: 0;
  z-index: 1100;
  display: flex;
  align-items: flex-start;
  justify-content: center;
  padding-top: 10vh;
}

.search-modal[hidden] {
  display: none;
}

.search-modal-backdrop {
  position: absolute;
  inset: 0;
  background: rgba(0, 0, 0, 0.55);
}

.search-modal-dialog {
  position: relative;
  width: min(640px, 92vw);
  max-height: 72vh;
  display: flex;
  flex-direction: column;
  background: var(--bg-secondary);
  border: 1px solid var(--glass-border);
  border-radius: 14px;
  box-shadow: var(--shadow-lg);
  overflow: hidden;
  animation: fadeInUp 0.2s ease both;
}

.search-modal-header {
  display: flex;
  align-items: center;
  gap: 0.5rem;
  padding: 0.65rem 0.9rem;
  border-bottom: 1px solid var(--border-color);
}

#search-modal-input {
  flex: 1;
  background: transparent;
  border: none;
  color: var(--text-primary);
  font-size: 1rem;
  padding: 0.4rem 0;
  font-family: inherit;
}

#search-modal-input:focus {
  outline: none;
}

.search-modal-close {
  background: transparent;
  border: none;
  color: var(--text-muted);
  font-size: 1.6rem;
  line-height: 1;
  cursor: pointer;
  padding: 0 0.3rem;
}

.search-modal-close:hover {
  color: var(--text-primary);
}

.search-modal-hint {
  padding: 0.35rem 0.9rem;
  font-size: 0.72rem;
  color: var(--text-muted);
  background: var(--bg-tertiary);
  border-bottom: 1px solid var(--border-color);
}

.search-modal-results {
  overflow-y: auto;
  flex: 1;
}

.search-modal-item {
  display: block;
  padding: 0.7rem 0.95rem;
  border-bottom: 1px solid var(--border-color);
  text-decoration: none;
  color: var(--text-primary);
  transition: background var(--transition-fast);
}

.search-modal-item:last-child {
  border-bottom: none;
}

.search-modal-item:hover,
.search-modal-item.active {
  background: rgba(90, 107, 122, 0.08);
}

.search-modal-item-category {
  display: inline-block;
  font-size: 0.64rem;
  font-weight: 700;
  text-transform: uppercase;
  color: var(--accent-primary);
  letter-spacing: 0.05em;
  margin-bottom: 0.2rem;
}

.search-modal-item-title {
  display: block;
  font-size: 0.94rem;
  font-weight: 600;
  line-height: 1.35;
  color: var(--text-primary);
}

.search-modal-item-excerpt {
  display: block;
  font-size: 0.78rem;
  color: var(--text-muted);
  margin-top: 0.25rem;
}

.search-modal-empty {
  padding: 2rem 1rem;
  text-align: center;
  color: var(--text-muted);
  font-size: 0.9rem;
}

#post-search-btn {
  padding: 0.4rem 0.7rem;
  font-size: 1rem;
}

/* ========================================
   Demo pages — Shared components (extract candidates)
   ======================================== */

/* 2:1 grid for chart + control */
.demo-grid-2col {
  display: grid;
  grid-template-columns: 2fr 1fr;
  gap: 2rem;
  margin-top: 2rem;
}

@media (max-width: 900px) {
  .demo-grid-2col { grid-template-columns: 1fr; }
}

/* Glass panel base for demo cards */
.demo-panel {
  background: var(--glass-bg);
  border: 1px solid var(--glass-border);
  border-radius: 16px;
  padding: 1.5rem;
}

.demo-panel--sm { padding: 1.25rem; border-radius: 12px; }

/* Stack of control cards */
.demo-control-stack {
  display: flex;
  flex-direction: column;
  gap: 1.5rem;
}

/* Action buttons (primary / secondary / reset) */
.demo-btn {
  width: 100%;
  padding: 0.6rem 1rem;
  border: none;
  border-radius: 8px;
  cursor: pointer;
  font-weight: 600;
  font-size: 0.9rem;
  transition: all var(--transition-fast);
  margin-bottom: 0.5rem;
  font-family: inherit;
}

.demo-btn:disabled {
  opacity: 0.5;
  cursor: not-allowed;
}

.demo-btn--primary {
  background: var(--accent-primary);
  color: var(--bg-primary);
}

.demo-btn--primary:hover:not(:disabled) {
  box-shadow: var(--shadow-glow);
}

.demo-btn--secondary {
  background: rgba(90, 107, 122, 0.15);
  color: var(--accent-primary);
  border: 1px solid var(--accent-primary);
}

.demo-btn--secondary:hover:not(:disabled) {
  background: rgba(90, 107, 122, 0.3);
}

.demo-btn--reset {
  background: rgba(255, 75, 87, 0.15);
  color: #ff4b57;
  border: 1px solid #ff4b57;
}

.demo-btn--reset:hover:not(:disabled) {
  background: rgba(255, 75, 87, 0.3);
}

/* Activity log panel */
.demo-log-panel {
  background: var(--bg-tertiary);
  border-radius: 8px;
  padding: 1rem;
  height: 180px;
  overflow-y: auto;
  font-family: 'Fira Code', monospace;
  font-size: 0.8rem;
  border: 1px solid var(--border-color);
}

.demo-log-panel > div {
  margin-bottom: 0.4rem;
  border-bottom: 1px solid rgba(255, 255, 255, 0.05);
  padding-bottom: 0.2rem;
}

.demo-log-panel .log-time {
  color: var(--accent-primary);
  margin-right: 0.5rem;
}

/* ========================================
   Demo pages — TL;DR + "Next Up" sections
   ======================================== */

.demo-tldr {
  padding: 2.5rem 0 1.5rem;
}

.demo-tldr-inner {
  max-width: 900px;
  margin: 0 auto;
  padding: 1.5rem 1.75rem;
  background: var(--glass-bg);
  border: 1px solid rgba(90, 107, 122, 0.3);
  border-left: 4px solid var(--accent-primary);
  border-radius: 12px;
}

.demo-tldr h3 {
  font-size: 1.05rem;
  margin-bottom: 0.85rem;
  color: var(--accent-primary);
  letter-spacing: 0.02em;
}

.demo-tldr ol {
  margin: 0;
  padding-left: 1.25rem;
}

.demo-tldr li {
  margin-bottom: 0.55rem;
  color: var(--text-secondary);
  line-height: 1.65;
  font-size: 0.95rem;
}

.demo-tldr li:last-child {
  margin-bottom: 0;
}

.demo-tldr strong {
  color: var(--text-primary);
}

.demo-next {
  padding: 1.5rem 0 4rem;
}

.demo-next-inner {
  max-width: 1100px;
  margin: 0 auto;
  padding: 0 2rem;
}

.demo-next h3 {
  font-size: 1.05rem;
  margin-bottom: 1rem;
  color: var(--text-primary);
  letter-spacing: 0.01em;
}

.demo-next-grid {
  display: grid;
  grid-template-columns: repeat(auto-fit, minmax(280px, 1fr));
  gap: 1rem;
}

.demo-next-card {
  display: flex;
  flex-direction: column;
  gap: 0.35rem;
  padding: 1.1rem 1.25rem;
  background: var(--glass-bg);
  border: 1px solid var(--glass-border);
  border-radius: 12px;
  text-decoration: none;
  transition: all var(--transition-fast);
}

.demo-next-card:hover {
  border-color: var(--accent-primary);
  transform: translateY(-3px);
  box-shadow: 0 6px 18px rgba(90, 107, 122, 0.12);
}

.demo-next-label {
  font-size: 0.7rem;
  text-transform: uppercase;
  letter-spacing: 0.08em;
  color: var(--accent-primary);
  font-weight: 700;
}

.demo-next-title {
  font-size: 1.02rem;
  font-weight: 700;
  color: var(--text-primary);
  line-height: 1.35;
}

.demo-next-excerpt {
  font-size: 0.82rem;
  color: var(--text-secondary);
  line-height: 1.5;
}

.demo-next-meta {
  font-size: 0.7rem;
  color: var(--text-muted);
  margin-top: 0.2rem;
}

@media (max-width: 768px) {
  .demo-tldr-inner { margin: 0 1rem; padding: 1.25rem; }
  .demo-next-inner { padding: 0 1rem; }
}

/* ========================================
   Demo pages — Abbreviation intro tooltip/box
   ======================================== */

.demo-abbr-box {
  max-width: 900px;
  margin: 1.5rem auto;
  padding: 1rem 1.25rem;
  background: rgba(255, 255, 255, 0.03);
  border: 1px dashed var(--border-color);
  border-radius: 10px;
  font-size: 0.85rem;
  color: var(--text-secondary);
  line-height: 1.6;
}

.demo-abbr-box strong {
  color: var(--accent-primary);
  margin-right: 0.3rem;
}

.demo-abbr-box .demo-abbr-item + .demo-abbr-item::before {
  content: '·';
  margin: 0 0.45rem;
  color: var(--text-muted);
}

/* ========================================
   Demo pages — Beginner-friendly components
   ======================================== */

/* 1) One-line analogy card (top of demo, just below hero) */
.demo-tldr-analogy {
  max-width: 900px;
  margin: 1.25rem auto 0;
  padding: 1.1rem 1.4rem;
  background: var(--bg-tertiary);
  border: 1px solid rgba(125, 94, 114, 0.25);
  border-left: 4px solid #7d5e72;
  border-radius: 12px;
  display: flex;
  gap: 1rem;
  align-items: flex-start;
}

[data-theme="light"] .demo-tldr-analogy {
  background: var(--bg-tertiary);
}

.demo-tldr-analogy-icon {
  flex-shrink: 0;
  width: 38px;
  height: 38px;
  border-radius: 10px;
  background: var(--accent-gradient);
  display: flex;
  align-items: center;
  justify-content: center;
  color: white;
  font-weight: 800;
  font-size: 1.05rem;
  font-family: 'Fira Code', monospace;
}

.demo-tldr-analogy-body {
  flex: 1;
  min-width: 0;
}

.demo-tldr-analogy-label {
  font-size: 0.7rem;
  font-weight: 700;
  letter-spacing: 0.12em;
  text-transform: uppercase;
  color: var(--accent-primary);
  margin-bottom: 0.3rem;
}

.demo-tldr-analogy-text {
  color: var(--text-primary);
  font-size: 0.98rem;
  line-height: 1.55;
}

.demo-tldr-analogy-text strong {
  color: var(--accent-primary);
}

@media (max-width: 768px) {
  .demo-tldr-analogy { margin: 1rem; padding: 0.95rem 1.1rem; }
}

/* 2) 3-step "이렇게 해보세요" guide */
.demo-steps {
  max-width: 900px;
  margin: 1.5rem auto;
  padding: 1.25rem 1.5rem;
  background: var(--glass-bg);
  border: 1px solid var(--glass-border);
  border-radius: 12px;
  list-style: none;
  counter-reset: demo-step;
}

.demo-steps-title {
  display: block;
  font-size: 0.72rem;
  font-weight: 700;
  letter-spacing: 0.12em;
  text-transform: uppercase;
  color: var(--text-muted);
  margin-bottom: 0.85rem;
}

.demo-steps > li {
  counter-increment: demo-step;
  display: flex;
  gap: 0.85rem;
  align-items: flex-start;
  padding: 0.5rem 0;
}

.demo-steps > li::before {
  content: counter(demo-step);
  flex-shrink: 0;
  width: 28px;
  height: 28px;
  border-radius: 50%;
  background: var(--accent-gradient);
  color: white;
  font-weight: 700;
  font-size: 0.85rem;
  display: flex;
  align-items: center;
  justify-content: center;
  margin-top: 0.05rem;
  box-shadow: 0 2px 8px rgba(125, 94, 114, 0.25);
}

.demo-steps .step-text {
  flex: 1;
  color: var(--text-secondary);
  line-height: 1.6;
  font-size: 0.93rem;
}

.demo-steps .step-text strong {
  color: var(--text-primary);
}

.demo-steps .step-text code {
  font-size: 0.85em;
  padding: 0.1em 0.4em;
}

@media (max-width: 768px) {
  .demo-steps { margin: 1.25rem; padding: 1rem; }
}

/* 3) Easy / Pro mode toggle */
.demo-mode-toggle {
  display: inline-flex;
  background: var(--bg-tertiary);
  border: 1px solid var(--border-color);
  border-radius: 10px;
  padding: 0.25rem;
  gap: 0.2rem;
  margin-bottom: 1rem;
  font-family: inherit;
}

.demo-mode-toggle button {
  background: transparent;
  border: none;
  color: var(--text-muted);
  padding: 0.4rem 0.95rem;
  border-radius: 8px;
  font-size: 0.82rem;
  font-weight: 600;
  cursor: pointer;
  transition: all var(--transition-fast);
  font-family: inherit;
}

.demo-mode-toggle button:hover {
  color: var(--text-primary);
}

.demo-mode-toggle button.is-active {
  background: var(--bg-primary);
  color: var(--accent-primary);
  box-shadow: var(--shadow-sm);
}

/* Pro-only elements are hidden when body is in easy mode */
body[data-demo-mode="easy"] .is-pro-only {
  display: none !important;
}

/* 4) Inline term with hover/click popover */
.demo-term {
  border-bottom: 1px dashed var(--accent-primary);
  cursor: help;
  color: inherit;
  position: relative;
  text-decoration: none;
}

.demo-term:hover {
  color: var(--accent-primary);
}

.demo-term-pop {
  visibility: hidden;
  opacity: 0;
  position: absolute;
  bottom: calc(100% + 10px);
  left: 50%;
  transform: translateX(-50%);
  z-index: 100;
  width: min(320px, 80vw);
  padding: 0.85rem 1rem;
  background: var(--bg-secondary);
  border: 1px solid var(--accent-primary);
  border-radius: 10px;
  box-shadow: var(--shadow-lg);
  font-size: 0.85rem;
  line-height: 1.55;
  color: var(--text-secondary);
  text-align: left;
  pointer-events: none;
  transition: opacity 0.15s ease, visibility 0.15s ease;
  white-space: normal;
  font-weight: 400;
}

.demo-term:hover .demo-term-pop,
.demo-term:focus-within .demo-term-pop,
.demo-term.is-open .demo-term-pop {
  visibility: visible;
  opacity: 1;
  pointer-events: auto;
}

.demo-term-pop::after {
  content: '';
  position: absolute;
  top: 100%;
  left: 50%;
  transform: translateX(-50%);
  border: 6px solid transparent;
  border-top-color: var(--accent-primary);
}

.demo-term-pop strong {
  color: var(--accent-primary);
  display: block;
  margin-bottom: 0.3rem;
  font-size: 0.92rem;
}

.demo-term-pop code {
  background: var(--bg-tertiary);
  padding: 0.1em 0.35em;
  border-radius: 4px;
  font-size: 0.85em;
  color: #e2b96f;
}

/* 5) "Prereq: 먼저 보면 좋은 데모" banner */
.demo-prereq {
  max-width: 900px;
  margin: 1.1rem auto 0;
  padding: 0.65rem 1rem;
  background: rgba(90, 107, 122, 0.05);
  border: 1px solid rgba(90, 107, 122, 0.25);
  border-radius: 10px;
  display: flex;
  flex-wrap: wrap;
  align-items: center;
  gap: 0.5rem 0.7rem;
  font-size: 0.85rem;
}

.demo-prereq-label {
  font-size: 0.68rem;
  font-weight: 700;
  letter-spacing: 0.1em;
  text-transform: uppercase;
  color: var(--text-muted);
}

.demo-prereq a {
  display: inline-flex;
  align-items: center;
  gap: 0.3rem;
  padding: 0.2rem 0.65rem;
  background: var(--bg-tertiary);
  border: 1px solid var(--border-color);
  border-radius: 6px;
  color: var(--accent-primary);
  font-weight: 600;
  text-decoration: none;
  transition: all var(--transition-fast);
  font-size: 0.82rem;
}

.demo-prereq a:hover {
  background: var(--accent-primary);
  color: var(--bg-primary);
  border-color: var(--accent-primary);
}

@media (max-width: 768px) {
  .demo-prereq { margin: 1rem; padding: 0.6rem 0.85rem; }
}

/* ========================================
   Ecosystem Map page
   ======================================== */

.eco-hero {
  text-align: center;
  padding: 3rem 0 1rem;
}

.eco-hero h1 {
  font-size: 2.5rem;
  margin-bottom: 0.6rem;
  color: var(--accent-primary);
  line-height: 1.15;
}

.eco-hero p {
  color: var(--text-secondary);
  max-width: 760px;
  margin: 0 auto;
  font-size: 1rem;
  line-height: 1.6;
}

.eco-controls {
  max-width: 1200px;
  margin: 1rem auto 0;
  padding: 0 2rem;
  display: flex;
  flex-direction: column;
  align-items: stretch;
  gap: 0.85rem;
}

.eco-flow-btn {
  background: var(--accent-gradient);
  color: white;
  border: none;
  border-radius: 10px;
  padding: 0.65rem 1.2rem;
  font-weight: 700;
  font-size: 0.92rem;
  cursor: pointer;
  transition: all var(--transition-fast);
  font-family: inherit;
  box-shadow: 0 4px 14px rgba(125, 94, 114, 0.25);
}

.eco-flow-btn:hover {
  transform: translateY(-2px);
  box-shadow: 0 6px 20px rgba(125, 94, 114, 0.4);
}

.eco-flow-btn:disabled {
  opacity: 0.55;
  cursor: not-allowed;
  transform: none;
}

/* Flow selection cards (v3: 라벨 + 한 줄 설명) */
.eco-flow-chips {
  display: grid;
  grid-template-columns: repeat(auto-fit, minmax(195px, 1fr));
  gap: 0.6rem;
}

.eco-flow-chip {
  display: flex;
  flex-direction: column;
  align-items: flex-start;
  padding: 0.7rem 0.95rem;
  border: 1px solid rgba(90, 107, 122, 0.5);
  border-radius: 12px;
  background: rgba(90, 107, 122, 0.06);
  color: inherit;
  font-family: inherit;
  cursor: pointer;
  text-align: left;
  transition: all var(--transition-fast);
  line-height: 1.35;
}

.eco-flow-chip-label {
  display: block;
  color: var(--accent-primary);
  font-weight: 700;
  font-size: 0.92rem;
  margin-bottom: 0.18rem;
}

.eco-flow-chip-desc {
  display: block;
  color: var(--text-muted);
  font-size: 0.74rem;
  line-height: 1.45;
  word-break: keep-all;
}

.eco-flow-chip:hover:not(:disabled) {
  background: rgba(90, 107, 122, 0.14);
  border-color: var(--accent-primary);
  box-shadow: 0 4px 14px rgba(90, 107, 122, 0.18);
  transform: translateY(-2px);
}

.eco-flow-chip:hover:not(:disabled) .eco-flow-chip-desc {
  color: var(--text-secondary);
}

.eco-flow-chip:disabled {
  opacity: 0.55;
  cursor: not-allowed;
  transform: none;
}

.eco-flow-chip.is-playing {
  background: var(--accent-gradient);
  border-color: transparent;
  opacity: 1;
  cursor: wait;
  box-shadow: 0 4px 18px rgba(125, 94, 114, 0.4);
}

.eco-flow-chip.is-playing .eco-flow-chip-label,
.eco-flow-chip.is-playing .eco-flow-chip-desc {
  color: white;
}

/* ========================================
   Ecosystem Showcase (homepage hero section)
   ======================================== */

.eco-showcase {
  padding: 1rem 0 2rem;
}

.eco-showcase-inner {
  background: var(--bg-tertiary);
  border: 1px solid rgba(125, 94, 114, 0.28);
  border-radius: 20px;
  padding: 2.25rem 2.5rem;
  text-align: center;
}

[data-theme="light"] .eco-showcase-inner {
  background: var(--bg-tertiary);
}

.eco-showcase-label {
  font-size: 0.72rem;
  letter-spacing: 0.18em;
  text-transform: uppercase;
  color: var(--accent-primary);
  font-weight: 700;
  margin-bottom: 0.5rem;
}

.eco-showcase-title {
  font-size: 1.85rem;
  margin: 0 0 0.5rem;
  color: var(--accent-primary);
  line-height: 1.2;
}

.eco-showcase-desc {
  color: var(--text-secondary);
  font-size: 0.96rem;
  max-width: 640px;
  margin: 0 auto 1.5rem;
  line-height: 1.6;
}

.eco-showcase-nodes {
  display: flex;
  flex-wrap: wrap;
  justify-content: center;
  gap: 0.4rem;
  margin-bottom: 1.75rem;
}

.eco-showcase-chip {
  padding: 0.32rem 0.75rem;
  border-radius: 6px;
  font-size: 0.78rem;
  font-weight: 600;
  border: 1px solid;
}

.eco-showcase-chip[data-category="buy"]         { background: rgba(125, 94, 114, 0.12); border-color: rgba(125, 94, 114, 0.5);  color: #7d5e72; }
.eco-showcase-chip[data-category="exchange"]    { background: rgba(90, 107, 122, 0.10);  border-color: rgba(90, 107, 122, 0.5);   color: #5a6b7a; }
.eco-showcase-chip[data-category="sell"]        { background: rgba(168, 120, 58, 0.12); border-color: rgba(168, 120, 58, 0.5);  color: #d4a574; }
.eco-showcase-chip[data-category="ml"]          { background: rgba(156, 90, 68, 0.12); border-color: rgba(156, 90, 68, 0.5);  color: #d49484; }
.eco-showcase-chip[data-category="measurement"] { background: rgba(95, 122, 99, 0.12); border-color: rgba(95, 122, 99, 0.5);  color: #5f7a63; }
.eco-showcase-chip[data-category="user"]        { background: rgba(154, 125, 56, 0.12); border-color: rgba(154, 125, 56, 0.55); color: #9a7d38; }

[data-theme="light"] .eco-showcase-chip[data-category="buy"]         { color: #6b4d60; }
[data-theme="light"] .eco-showcase-chip[data-category="exchange"]    { color: #4a5a68; }
[data-theme="light"] .eco-showcase-chip[data-category="sell"]        { color: #8a5a2e; }
[data-theme="light"] .eco-showcase-chip[data-category="ml"]          { color: #8a4736; }
[data-theme="light"] .eco-showcase-chip[data-category="measurement"] { color: #4a6350; }
[data-theme="light"] .eco-showcase-chip[data-category="user"]        { color: #7d6530; }

.eco-showcase-cta {
  display: inline-block;
  padding: 0.9rem 1.85rem;
  background: var(--accent-gradient);
  color: white;
  border-radius: 12px;
  font-weight: 700;
  font-size: 1rem;
  text-decoration: none;
  box-shadow: 0 6px 24px rgba(125, 94, 114, 0.35);
  transition: transform var(--transition-fast), box-shadow var(--transition-fast);
}

.eco-showcase-cta:hover {
  transform: translateY(-3px);
  box-shadow: 0 10px 30px rgba(125, 94, 114, 0.5);
  color: white;
}

@media (max-width: 768px) {
  .eco-showcase-inner { padding: 1.5rem 1.25rem; border-radius: 16px; }
  .eco-showcase-title { font-size: 1.4rem; }
  .eco-showcase-desc { font-size: 0.88rem; }
  .eco-showcase-chip { font-size: 0.72rem; padding: 0.25rem 0.6rem; }
  .eco-showcase-cta { padding: 0.8rem 1.4rem; font-size: 0.92rem; }
}

.eco-legend {
  display: flex;
  flex-wrap: wrap;
  gap: 0.5rem 0.85rem;
  font-size: 0.78rem;
  color: var(--text-secondary);
}

.eco-legend-item {
  display: inline-flex;
  align-items: center;
  gap: 0.4rem;
}

.eco-legend-dot {
  width: 12px;
  height: 12px;
  border-radius: 3px;
  flex-shrink: 0;
}

.eco-legend-dot[data-category="buy"]         { background: rgba(125, 94, 114, 0.6); border: 1px solid rgba(125, 94, 114, 0.85); }
.eco-legend-dot[data-category="exchange"]    { background: rgba(90, 107, 122, 0.45);  border: 1px solid rgba(90, 107, 122, 0.85); }
.eco-legend-dot[data-category="sell"]        { background: rgba(168, 120, 58, 0.5);  border: 1px solid rgba(168, 120, 58, 0.85); }
.eco-legend-dot[data-category="ml"]          { background: rgba(156, 90, 68, 0.5);  border: 1px solid rgba(156, 90, 68, 0.85); }
.eco-legend-dot[data-category="measurement"] { background: rgba(95, 122, 99, 0.5);  border: 1px solid rgba(95, 122, 99, 0.85); }
.eco-legend-dot[data-category="user"]        { background: rgba(154, 125, 56, 0.45); border: 1px solid rgba(154, 125, 56, 0.85); }

/* Main layout: SVG + side panel */
.eco-main-layout {
  max-width: 1280px;
  margin: 1.5rem auto 0;
  padding: 0 2rem;
  display: grid;
  grid-template-columns: minmax(0, 1fr) 320px;
  gap: 1.5rem;
}

.eco-graph-wrap {
  background: var(--glass-bg);
  border: 1px solid var(--glass-border);
  border-radius: 16px;
  padding: 1rem;
  overflow: hidden;
  position: relative;
}

.eco-graph-wrap svg {
  display: block;
  width: 100%;
  height: auto;
  user-select: none;
}

/* Caption sits BELOW the SVG (block child of graph-wrap), no longer overlays nodes */
.eco-flow-caption {
  margin: 0.85rem 0 0;
  text-align: center;
  background: rgba(10, 14, 39, 0.85);
  border: 1px solid var(--accent-primary);
  border-radius: 10px;
  padding: 0.65rem 0.95rem;
  font-size: 0.9rem;
  color: var(--text-primary);
  display: none;
  pointer-events: none;
}

[data-theme="light"] .eco-flow-caption {
  background: rgba(255, 255, 255, 0.97);
  color: var(--text-primary);
}

.eco-flow-caption.is-visible {
  display: block;
}

/* SVG nodes */
.eco-node {
  cursor: pointer;
  transition: filter 0.2s ease, transform 0.2s ease;
}

.eco-node .eco-node-rect {
  rx: 12;
  stroke-width: 1.5;
  transition: all 0.2s ease;
}

.eco-node[data-category="buy"]         .eco-node-rect { fill: rgba(125, 94, 114, 0.15); stroke: rgba(125, 94, 114, 0.6); }
.eco-node[data-category="exchange"]    .eco-node-rect { fill: rgba(90, 107, 122, 0.12);  stroke: rgba(90, 107, 122, 0.65); }
.eco-node[data-category="sell"]        .eco-node-rect { fill: rgba(168, 120, 58, 0.13); stroke: rgba(168, 120, 58, 0.65); }
.eco-node[data-category="ml"]          .eco-node-rect { fill: rgba(156, 90, 68, 0.13); stroke: rgba(156, 90, 68, 0.65); }
.eco-node[data-category="measurement"] .eco-node-rect { fill: rgba(95, 122, 99, 0.13); stroke: rgba(95, 122, 99, 0.65); }
.eco-node[data-category="user"]        .eco-node-rect { fill: rgba(154, 125, 56, 0.12); stroke: rgba(154, 125, 56, 0.7); }

.eco-node:hover .eco-node-rect,
.eco-node.is-active .eco-node-rect {
  stroke-width: 2.5;
  filter: brightness(1.25);
}

.eco-node.is-active .eco-node-rect {
  filter: brightness(1.1);
}

.eco-node-title {
  font-size: 13px;
  font-weight: 700;
  fill: var(--text-primary);
  text-anchor: middle;
  pointer-events: none;
}

.eco-node-sub {
  font-size: 10px;
  font-weight: 500;
  fill: var(--text-muted);
  text-anchor: middle;
  pointer-events: none;
}

[data-theme="light"] .eco-node-title { fill: var(--text-primary); }
[data-theme="light"] .eco-node-sub   { fill: var(--text-secondary); }

/* SVG edges */
.eco-edge {
  fill: none;
  stroke: rgba(255, 255, 255, 0.18);
  stroke-width: 1.5;
  transition: stroke 0.25s ease, stroke-width 0.25s ease;
}

[data-theme="light"] .eco-edge {
  stroke: rgba(0, 0, 0, 0.18);
}

.eco-edge.is-active {
  stroke: var(--accent-primary);
  stroke-width: 2.5;
}

.eco-edge-label {
  font-size: 9px;
  fill: var(--text-muted);
  text-anchor: middle;
  pointer-events: none;
}

/* Flow animation dots */
.eco-flow-dot {
  fill: var(--accent-primary);
}

/* SVG tooltip (hover popover) */
.eco-tooltip {
  position: absolute;
  background: var(--bg-secondary);
  border: 1px solid var(--accent-primary);
  border-radius: 10px;
  padding: 0.7rem 0.9rem;
  font-size: 0.82rem;
  color: var(--text-secondary);
  line-height: 1.45;
  width: 240px;
  pointer-events: none;
  opacity: 0;
  transform: translate(-50%, -100%) translateY(-12px);
  transition: opacity 0.15s ease;
  z-index: 10;
  box-shadow: var(--shadow-lg);
}

.eco-tooltip.is-visible { opacity: 1; }

.eco-tooltip strong {
  display: block;
  color: var(--accent-primary);
  font-size: 0.9rem;
  margin-bottom: 0.2rem;
}

.eco-tooltip-cat {
  display: inline-block;
  font-size: 0.65rem;
  font-weight: 700;
  letter-spacing: 0.08em;
  text-transform: uppercase;
  padding: 0.1rem 0.45rem;
  border-radius: 4px;
  margin-top: 0.4rem;
}

/* Side panel */
.eco-side-panel {
  background: var(--glass-bg);
  border: 1px solid var(--glass-border);
  border-radius: 16px;
  padding: 1.25rem;
  position: sticky;
  top: 5rem;
  align-self: start;
  max-height: calc(100vh - 6rem);
  overflow-y: auto;
}

.eco-side-empty {
  text-align: center;
  color: var(--text-muted);
  font-size: 0.9rem;
  padding: 2rem 0.5rem;
  line-height: 1.6;
}

.eco-side-empty strong {
  display: block;
  color: var(--text-primary);
  margin-bottom: 0.4rem;
  font-size: 1rem;
}

.eco-side-name {
  font-size: 1.15rem;
  font-weight: 700;
  color: var(--accent-primary);
  margin-bottom: 0.25rem;
}

.eco-side-sub {
  color: var(--text-muted);
  font-size: 0.82rem;
  margin-bottom: 0.5rem;
}

.eco-side-cat-tag {
  display: inline-block;
  font-size: 0.65rem;
  font-weight: 700;
  letter-spacing: 0.08em;
  text-transform: uppercase;
  padding: 0.18rem 0.55rem;
  border-radius: 4px;
  margin-bottom: 0.8rem;
}

.eco-side-cat-tag[data-category="buy"]         { background: rgba(125, 94, 114, 0.18); color: #7d5e72; }
.eco-side-cat-tag[data-category="exchange"]    { background: rgba(90, 107, 122, 0.14);  color: #5a6b7a; }
.eco-side-cat-tag[data-category="sell"]        { background: rgba(168, 120, 58, 0.18); color: #d4a574; }
.eco-side-cat-tag[data-category="ml"]          { background: rgba(156, 90, 68, 0.18); color: #d49484; }
.eco-side-cat-tag[data-category="measurement"] { background: rgba(95, 122, 99, 0.18); color: #5f7a63; }
.eco-side-cat-tag[data-category="user"]        { background: rgba(154, 125, 56, 0.18); color: #9a7d38; }

.eco-side-definition {
  color: var(--text-secondary);
  font-size: 0.9rem;
  line-height: 1.6;
  margin-bottom: 1rem;
  padding-bottom: 1rem;
  border-bottom: 1px solid var(--border-color);
}

.eco-side-section {
  margin-bottom: 1rem;
}

.eco-side-section-title {
  font-size: 0.7rem;
  font-weight: 700;
  letter-spacing: 0.1em;
  text-transform: uppercase;
  color: var(--text-muted);
  margin-bottom: 0.5rem;
}

.eco-side-chips {
  display: flex;
  flex-wrap: wrap;
  gap: 0.4rem;
}

.eco-side-chip {
  display: inline-block;
  padding: 0.3rem 0.7rem;
  background: var(--bg-tertiary);
  border: 1px solid var(--border-color);
  border-radius: 6px;
  font-size: 0.8rem;
  color: var(--accent-primary);
  font-weight: 600;
  text-decoration: none;
  transition: all var(--transition-fast);
}

.eco-side-chip:hover {
  background: var(--accent-primary);
  color: var(--bg-primary);
  border-color: var(--accent-primary);
}

.eco-side-chip.is-demo  { color: var(--accent-primary); }
.eco-side-chip.is-post  { color: var(--text-secondary); }

.eco-side-empty-section {
  font-size: 0.78rem;
  color: var(--text-muted);
  font-style: italic;
}

/* Categories grid (below the graph) */
.eco-categories {
  max-width: 1200px;
  margin: 3rem auto 0;
  padding: 0 2rem;
}

.eco-categories h2 {
  font-size: 1.4rem;
  text-align: center;
  margin-bottom: 0.5rem;
}

.eco-categories-sub {
  text-align: center;
  color: var(--text-secondary);
  font-size: 0.95rem;
  margin-bottom: 1.5rem;
}

.eco-categories-grid {
  display: grid;
  grid-template-columns: repeat(auto-fit, minmax(260px, 1fr));
  gap: 1rem;
}

.eco-cat-card {
  background: var(--glass-bg);
  border: 1px solid var(--glass-border);
  border-radius: 12px;
  padding: 1.15rem 1.3rem;
  border-left: 4px solid transparent;
  text-decoration: none;
  color: inherit;
  word-break: keep-all;
  overflow-wrap: anywhere;
  display: block;
}

.eco-cat-card h3,
.eco-cat-card p {
  word-break: keep-all;
  overflow-wrap: anywhere;
}

.eco-cat-card[data-category="buy"]         { border-left-color: #7d5e72; }
.eco-cat-card[data-category="exchange"]    { border-left-color: #5a6b7a; }
.eco-cat-card[data-category="sell"]        { border-left-color: #a8783a; }
.eco-cat-card[data-category="ml"]          { border-left-color: #9c5a44; }
.eco-cat-card[data-category="measurement"] { border-left-color: #5f7a63; }
.eco-cat-card[data-category="user"]        { border-left-color: #9a7d38; }

.eco-cat-card h3 {
  font-size: 1rem;
  margin-bottom: 0.4rem;
}

.eco-cat-card p {
  color: var(--text-secondary);
  font-size: 0.85rem;
  line-height: 1.55;
  margin: 0;
}

/* Mobile responsive */
@media (max-width: 1024px) {
  .eco-main-layout {
    grid-template-columns: 1fr;
  }

  .eco-side-panel {
    position: static;
    max-height: none;
  }
}

@media (max-width: 768px) {
  .eco-hero { padding: 2rem 0 1rem; }
  .eco-hero h1 { font-size: 2rem; }
  .eco-controls { padding: 0 1rem; }
  .eco-main-layout { padding: 0 1rem; gap: 1rem; }
  .eco-graph-wrap { padding: 0.6rem; }
  .eco-categories { padding: 0 1rem; }
}

/* ===== 공용 try/more 버튼 ===== */
.btn-try {
  display: inline-block;
  padding: 0.6rem 1.4rem;
  border-radius: 9px;
  border: 1px solid var(--accent-primary);
  background: transparent;
  color: var(--accent-primary);
  font-weight: 600;
  font-size: 0.9rem;
  font-family: inherit;
  cursor: pointer;
  text-decoration: none;
  transition: all var(--transition-fast);
}
.btn-try:hover { background: var(--accent-primary); color: var(--bg-primary); }

/* ===== Browse / Index ===== */
.browse-toolbar {
  display: flex;
  justify-content: space-between;
  align-items: center;
  gap: 1rem;
  flex-wrap: wrap;
  margin: 1rem 0 1.5rem;
}
.browse-count { color: var(--text-secondary); font-size: 0.92rem; font-weight: 600; }
.browse-toolbar-right { display: flex; align-items: center; gap: 0.9rem; }
.browse-sort { font-size: 0.85rem; color: var(--text-muted); display: inline-flex; align-items: center; gap: 0.4rem; }
.browse-sort select {
  font-family: inherit;
  font-size: 0.85rem;
  padding: 0.3rem 0.5rem;
  border: 1px solid var(--border-color);
  border-radius: 8px;
  background: var(--bg-secondary);
  color: var(--text-primary);
  cursor: pointer;
}
.browse-more { text-align: center; margin: 1.75rem 0 0.5rem; }
.browse-empty { grid-column: 1 / -1; text-align: center; padding: 3rem 1rem; color: var(--text-muted); }
.browse-empty h3 { color: var(--text-secondary); margin-bottom: 0.5rem; }
.series-badge {
  display: inline-block;
  font-size: 0.7rem;
  color: var(--accent-secondary);
  border: 1px solid var(--border-color);
  border-radius: 999px;
  padding: 0.1rem 0.55rem;
  margin-bottom: 0.6rem;
}
/* 다중선택: 여러 칩이 동시에 .active 가능 — 기존 .active 스타일 재사용 */
.category-tab, .filter-tag { cursor: pointer; }

/* ===== Home curated ===== */
.home-section-head { display: flex; align-items: baseline; justify-content: space-between; gap: 1rem; margin-bottom: 1.25rem; }
.home-section-head h2 { font-family: var(--font-serif); margin: 0; }
.home-section-head p, .home-section-head a { color: var(--text-muted); font-size: 0.9rem; }
.home-section-head a { text-decoration: none; }
.home-section-head a:hover { color: var(--accent-primary); }
.home-series { display: grid; grid-template-columns: repeat(auto-fit, minmax(240px, 1fr)); gap: 1rem; }
.home-series-card {
  display: flex; flex-direction: column; gap: 0.4rem;
  padding: 1.2rem 1.3rem;
  background: var(--bg-secondary);
  border: 1px solid var(--border-color);
  border-radius: 14px;
  border-left: 3px solid var(--accent-primary);
  text-decoration: none;
  transition: transform var(--transition-fast);
}
.home-series-card:hover { transform: translateY(-2px); }
.home-series-name { font-family: var(--font-serif); font-weight: 700; color: var(--text-primary); }
.home-series-desc { color: var(--text-secondary); font-size: 0.88rem; line-height: 1.5; }
.home-series-count { color: var(--accent-secondary); font-size: 0.8rem; margin-top: 0.2rem; }
.home-browse-cta { text-align: center; }

/* ===== Series box (post page) ===== */
.series-box {
  background: var(--bg-secondary);
  border: 1px solid var(--border-color);
  border-left: 3px solid var(--accent-primary);
  border-radius: 14px;
  padding: 1.3rem 1.5rem;
  margin: 2rem 0;
}
.series-box-head { display: flex; align-items: baseline; gap: 0.7rem; margin-bottom: 0.9rem; }
.series-kicker { font-size: 0.72rem; text-transform: uppercase; letter-spacing: 0.08em; color: var(--accent-secondary); }
.series-title { font-family: var(--font-serif); font-weight: 700; color: var(--text-primary); }
.series-progress { margin-left: auto; font-family: var(--font-mono); color: var(--text-muted); font-size: 0.85rem; }
.series-list { list-style: none; padding: 0; margin: 0; display: flex; flex-direction: column; gap: 0.35rem; }
.series-item { display: flex; align-items: baseline; gap: 0.7rem; }
.series-num {
  width: 1.5rem; flex: 0 0 auto; text-align: center;
  font-family: var(--font-mono); font-size: 0.8rem; color: var(--text-muted);
  border: 1px solid var(--border-color); border-radius: 6px;
}
.series-item.is-current .series-num { background: var(--accent-primary); color: var(--bg-primary); border-color: var(--accent-primary); }
.series-name { color: var(--text-secondary); text-decoration: none; }
.series-item.is-current .series-name { color: var(--text-primary); font-weight: 700; }
a.series-name:hover { color: var(--accent-primary); }
.series-nav {
  display: flex; justify-content: space-between; gap: 1rem;
  margin-top: 1rem; padding-top: 0.9rem;
  border-top: 1px solid var(--border-color);
  font-size: 0.88rem;
}
.series-nav a { color: var(--accent-primary); text-decoration: none; }
.series-nav a:hover { text-decoration: underline; }